…
orm=1.0, num_train_epochs=1.0, max_steps=-1, warmup_steps=0, logging_steps=50, save_steps=50, save_total_limit=None, eval_all_checkpoints=False, no_cuda=False, overwrite_output_dir=False, overwrite_cache=False, seed=123456, epoch=100, fp16=False, fp16_opt_level='O1', local_rank=-1, server_ip='', server_port='', n_gpu=1, device=device(type='cuda'), per_gpu_train_batch_size=16, per_gpu_eval_batch_size=32, start_epoch=0, start_step=0)
04/25/2026 21:29:56 - INFO - __main__ -   Creating features from index file at ../dataset/valid.txt 
BertModel(
  (embeddings): BertEmbeddings(
    (word_embeddings): Embedding(49156, 768, padding_idx=49152)
    (position_embeddings): Embedding(1024, 768)
    (token_type_embeddings): Embedding(2, 768)
    (LayerNorm): LayerNorm((768,), eps=1e-12, elementwise_affine=True)
    (dropout): Dropout(p=0.1, inplace=False)
  )
  (encoder): BertEncoder(
    (layer): ModuleList(
      (0-3): 4 x BertLayer(
        (attention): BertAttention(
          (self): BertSelfAttention(
            (query): Linear(in_features=768, out_features=768, bias=True)
            (key): Linear(in_features=768, out_features=768, bias=True)
            (value): Linear(in_features=768, out_features=768, bias=True)
            (dropout): Dropout(p=0.1, inplace=False)
          )
          (output): BertSelfOutput(
            (dense): Linear(in_features=768, out_features=768, bias=True)
            (LayerNorm): LayerNorm((768,), eps=1e-12, elementwise_affine=True)
            (dropout): Dropout(p=0.1, inplace=False)
          )
        )
        (intermediate): BertIntermediate(
          (dense): Linear(in_features=768, out_features=3072, bias=True)
          (intermediate_act_fn): GELUActivation()
        )
        (output): BertOutput(
          (dense): Linear(in_features=3072, out_features=768, bias=True)
          (LayerNorm): LayerNorm((768,), eps=1e-12, elementwise_affine=True)
          (dropout): Dropout(p=0.1, inplace=False)
        )
      )
    )
  )
  (pooler): BertPooler(
    (dense): Linear(in_features=768, out_features=768, bias=True)
    (activation): Tanh()
  )
)
GPT2Model(
  (wte): Embedding(52000, 768)
  (wpe): Embedding(1024, 768)
  (drop): Dropout(p=0.1, inplace=False)
  (h): ModuleList(
    (0-1): 2 x GPT2Block(
      (ln_1): LayerNorm((768,), eps=1e-05, elementwise_affine=True)
      (attn): GPT2Attention(
        (c_attn): Conv1D()
        (c_proj): Conv1D()
        (attn_dropout): Dropout(p=0.1, inplace=False)
        (resid_dropout): Dropout(p=0.1, inplace=False)
      )
      (ln_2): LayerNorm((768,), eps=1e-05, elementwise_affine=True)
      (mlp): GPT2MLP(
        (c_fc): Conv1D()
        (c_proj): Conv1D()
        (act): NewGELUActivation()
        (dropout): Dropout(p=0.1, inplace=False)
      )
    )
  )
  (ln_f): LayerNorm((768,), eps=1e-05, elementwise_affine=True)
)
  0%|          | 0/41541 [00:00<?, ?it/s]  3%|▎         | 1300/41541 [00:00<00:04, 8952.06it/s]  6%|▋         | 2600/41541 [00:00<00:04, 9227.04it/s]  9%|▉         | 3900/41541 [00:00<00:04, 9400.26it/s] 13%|█▎        | 5200/41541 [00:00<00:03, 9492.42it/s] 16%|█▌        | 6500/41541 [00:00<00:03, 9366.96it/s] 19%|█▉        | 7800/41541 [00:00<0
…
