…
/home/zhaoyu/anaconda3/envs/ccrep/lib/python3.9/site-packages/transformers/optimization.py:411: FutureWarning: This implementation of AdamW is deprecated and will be removed in a future version. Use the PyTorch implementation torch.optim.AdamW instead, or set `no_deprecation_warning=True` to disable this warning
  warnings.warn(
04/21/2026 23:40:27 - INFO - __main__ -   ***** Running training *****
04/21/2026 23:40:27 - INFO - __main__ -     Num examples = 24034
04/21/2026 23:40:27 - INFO - __main__ -     Num Epochs = 100
04/21/2026 23:40:27 - INFO - __main__ -     Instantaneous batch size per GPU = 16
04/21/2026 23:40:27 - INFO - __main__ -     Total train batch size (w. parallel, distributed & accumulation) = 16
04/21/2026 23:40:27 - INFO - __main__ -     Gradient Accumulation steps = 1
04/21/2026 23:40:27 - INFO - __main__ -     Total optimization steps = 150300
GPT2Model(
  (wte): Embedding(52000, 768)
  (wpe): Embedding(1024, 768)
  (drop): Dropout(p=0.1, inplace=False)
  (h): ModuleList(
    (0-3): 4 x GPT2Block(
      (ln_1): LayerNorm((768,), eps=1e-05, elementwise_affine=True)
      (attn): GPT2Attention(
        (c_attn): Conv1D()
        (c_proj): Conv1D()
        (attn_dropout): Dropout(p=0.1, inplace=False)
        (resid_dropout): Dropout(p=0.1, inplace=False)
      )
      (ln_2): LayerNorm((768,), eps=1e-05, elementwise_affine=True)
      (mlp): GPT2MLP(
        (c_fc): Conv1D()
        (c_proj): Conv1D()
        (act): NewGELUActivation()
        (dropout): Dropout(p=0.1, inplace=False)
      )
    )
  )
  (ln_f): LayerNorm((768,), eps=1e-05, elementwise_affine=True)
)
GPTNeoXModel(
  (embed_in): Embedding(50304, 768)
  (layers): ModuleList(
    (0-1): 2 x GPTNeoXLayer(
      (input_layernorm): LayerNorm((768,), eps=1e-05, elementwise_affine=True)
      (post_attention_layernorm): LayerNorm((768,), eps=1e-05, elementwise_affine=True)
      (attention): GPTNeoXAttention(
        (rotary_emb): RotaryEmbedding()
        (query_key_value): Linear(in_features=768, out_features=2304, bias=True)
        (dense): Linear(in_features=768, out_features=768, bias=True)
      )
      (mlp): GPTNeoXMLP(
        (dense_h_to_4h): Linear(in_features=768, out_features=3072, bias=True)
        (dense_4h_to_h): Linear(in_features=3072, out_features=768, bias=True)
        (act): GELUActivation()
      )
    )
  )
  (final_layer_norm): LayerNorm((768,), eps=1e-05, elementwise_affine=True)
)
  0%|          | 0/1503 [00:00<?, ?it/s]huggingface/tokenizers: The current process just got forked, after parallelism has already been used. Disabling parallelism to avoid deadlocks...
To disable this warning, you can either:
	- Avoid using `tokenizers` before the fork if possible
	- Explicitly set the environment variable TOKENIZERS_PARALLELISM=(true | false)
…
