…
orm=1.0, num_train_epochs=1.0, max_steps=-1, warmup_steps=0, logging_steps=50, save_steps=50, save_total_limit=None, eval_all_checkpoints=False, no_cuda=False, overwrite_output_dir=False, overwrite_cache=False, seed=123456, epoch=100, fp16=False, fp16_opt_level='O1', local_rank=-1, server_ip='', server_port='', n_gpu=1, device=device(type='cuda'), per_gpu_train_batch_size=16, per_gpu_eval_batch_size=32, start_epoch=0, start_step=0)
04/24/2026 01:35:18 - INFO - __main__ -   Creating features from index file at ../dataset/valid.txt 
BertModel(
  (embeddings): BertEmbeddings(
    (word_embeddings): Embedding(28996, 768, padding_idx=0)
    (position_embeddings): Embedding(512, 768)
    (token_type_embeddings): Embedding(2, 768)
    (LayerNorm): LayerNorm((768,), eps=1e-12, elementwise_affine=True)
    (dropout): Dropout(p=0.1, inplace=False)
  )
  (encoder): BertEncoder(
    (layer): ModuleList(
      (0-3): 4 x BertLayer(
        (attention): BertAttention(
          (self): BertSelfAttention(
            (query): Linear(in_features=768, out_features=768, bias=True)
            (key): Linear(in_features=768, out_features=768, bias=True)
            (value): Linear(in_features=768, out_features=768, bias=True)
            (dropout): Dropout(p=0.1, inplace=False)
          )
          (output): BertSelfOutput(
            (dense): Linear(in_features=768, out_features=768, bias=True)
            (LayerNorm): LayerNorm((768,), eps=1e-12, elementwise_affine=True)
            (dropout): Dropout(p=0.1, inplace=False)
          )
        )
        (intermediate): BertIntermediate(
          (dense): Linear(in_features=768, out_features=3072, bias=True)
          (intermediate_act_fn): GELUActivation()
        )
        (output): BertOutput(
          (dense): Linear(in_features=3072, out_features=768, bias=True)
          (LayerNorm): LayerNorm((768,), eps=1e-12, elementwise_affine=True)
          (dropout): Dropout(p=0.1, inplace=False)
        )
      )
    )
  )
  (pooler): BertPooler(
    (dense): Linear(in_features=768, out_features=768, bias=True)
    (activation): Tanh()
  )
)
CodeGenModel(
  (wte): Embedding(51200, 1024)
  (drop): Dropout(p=0.0, inplace=False)
  (h): ModuleList(
    (0-1): 2 x CodeGenBlock(
      (ln_1): LayerNorm((1024,), eps=1e-05, elementwise_affine=True)
      (attn): CodeGenAttention(
        (attn_dropout): Dropout(p=0.0, inplace=False)
        (resid_dropout): Dropout(p=0.0, inplace=False)
        (qkv_proj): Linear(in_features=1024, out_features=3072, bias=False)
        (out_proj): Linear(in_features=1024, out_features=1024, bias=False)
      )
      (mlp): CodeGenMLP(
        (fc_in): Linear(in_features=1024, out_features=4096, bias=True)
        (fc_out): Linear(in_features=4096, out_features=1024, bias=True)
        (act): NewGELUActivation()
        (dropout): Dropout(p=0.0, inplace=False)
      )
    )
  )
  (ln_f): LayerNorm((1024,), eps=1e-05, elementwise_affine=True)
)
  0%|          | 0/41541 [00:00<?, ?it/s]  3%|▎         | 1300/41541 [00:00<00:04, 9826.99it/s]Token indices sequence length is longer than the specified maximum sequence length for this model (1972 > 512). Running this sequence through the model will result in indexing errors
Token indices sequence length is longer than the specified maximum sequence length for this model (591 > 512). Running this sequence through the model will result in indexing errors
…
