…
orm=1.0, num_train_epochs=1.0, max_steps=-1, warmup_steps=0, logging_steps=50, save_steps=50, save_total_limit=None, eval_all_checkpoints=False, no_cuda=False, overwrite_output_dir=False, overwrite_cache=False, seed=123456, epoch=100, fp16=False, fp16_opt_level='O1', local_rank=-1, server_ip='', server_port='', n_gpu=1, device=device(type='cuda'), per_gpu_train_batch_size=16, per_gpu_eval_batch_size=32, start_epoch=0, start_step=0)
04/24/2026 01:03:21 - INFO - __main__ -   Creating features from index file at ../dataset/valid.txt 
BertModel(
  (embeddings): BertEmbeddings(
    (word_embeddings): Embedding(28996, 768, padding_idx=0)
    (position_embeddings): Embedding(512, 768)
    (token_type_embeddings): Embedding(2, 768)
    (LayerNorm): LayerNorm((768,), eps=1e-12, elementwise_affine=True)
    (dropout): Dropout(p=0.1, inplace=False)
  )
  (encoder): BertEncoder(
    (layer): ModuleList(
      (0-3): 4 x BertLayer(
        (attention): BertAttention(
          (self): BertSelfAttention(
            (query): Linear(in_features=768, out_features=768, bias=True)
            (key): Linear(in_features=768, out_features=768, bias=True)
            (value): Linear(in_features=768, out_features=768, bias=True)
            (dropout): Dropout(p=0.1, inplace=False)
          )
          (output): BertSelfOutput(
            (dense): Linear(in_features=768, out_features=768, bias=True)
            (LayerNorm): LayerNorm((768,), eps=1e-12, elementwise_affine=True)
            (dropout): Dropout(p=0.1, inplace=False)
          )
        )
        (intermediate): BertIntermediate(
          (dense): Linear(in_features=768, out_features=3072, bias=True)
          (intermediate_act_fn): GELUActivation()
        )
        (output): BertOutput(
          (dense): Linear(in_features=3072, out_features=768, bias=True)
          (LayerNorm): LayerNorm((768,), eps=1e-12, elementwise_affine=True)
          (dropout): Dropout(p=0.1, inplace=False)
        )
      )
    )
  )
  (pooler): BertPooler(
    (dense): Linear(in_features=768, out_features=768, bias=True)
    (activation): Tanh()
  )
)
GPTNeoXModel(
  (embed_in): Embedding(50304, 768)
  (layers): ModuleList(
    (0-1): 2 x GPTNeoXLayer(
      (input_layernorm): LayerNorm((768,), eps=1e-05, elementwise_affine=True)
      (post_attention_layernorm): LayerNorm((768,), eps=1e-05, elementwise_affine=True)
      (attention): GPTNeoXAttention(
        (rotary_emb): RotaryEmbedding()
        (query_key_value): Linear(in_features=768, out_features=2304, bias=True)
        (dense): Linear(in_features=768, out_features=768, bias=True)
      )
      (mlp): GPTNeoXMLP(
        (dense_h_to_4h): Linear(in_features=768, out_features=3072, bias=True)
        (dense_4h_to_h): Linear(in_features=3072, out_features=768, bias=True)
        (act): GELUActivation()
      )
    )
  )
  (final_layer_norm): LayerNorm((768,), eps=1e-05, elementwise_affine=True)
)
  0%|          | 0/41541 [00:00<?, ?it/s]Token indices sequence length is longer than the specified maximum sequence length for this model (1972 > 512). Running this sequence through the model will result in indexing errors
  5%|▍         | 1950/41541 [00:00<00:02, 15093.88it/s]Token indices sequence length is longer than the specified maximum sequence length for this model (591 > 512). Running this sequence through the model will result in indexing errors
…
