…
04/22/2026 14:49:07 - INFO - __main__ -   ***** Running training *****
04/22/2026 14:49:07 - INFO - __main__ -     Num examples = 24034
04/22/2026 14:49:07 - INFO - __main__ -     Num Epochs = 100
04/22/2026 14:49:07 - INFO - __main__ -     Instantaneous batch size per GPU = 16
04/22/2026 14:49:07 - INFO - __main__ -     Total train batch size (w. parallel, distributed & accumulation) = 16
04/22/2026 14:49:07 - INFO - __main__ -     Gradient Accumulation steps = 1
04/22/2026 14:49:07 - INFO - __main__ -     Total optimization steps = 150300
BertModel(
  (embeddings): BertEmbeddings(
    (word_embeddings): Embedding(49156, 768, padding_idx=49152)
    (position_embeddings): Embedding(1024, 768)
    (token_type_embeddings): Embedding(2, 768)
    (LayerNorm): LayerNorm((768,), eps=1e-12, elementwise_affine=True)
    (dropout): Dropout(p=0.1, inplace=False)
  )
  (encoder): BertEncoder(
    (layer): ModuleList(
      (0-3): 4 x BertLayer(
        (attention): BertAttention(
          (self): BertSelfAttention(
            (query): Linear(in_features=768, out_features=768, bias=True)
            (key): Linear(in_features=768, out_features=768, bias=True)
            (value): Linear(in_features=768, out_features=768, bias=True)
            (dropout): Dropout(p=0.1, inplace=False)
          )
          (output): BertSelfOutput(
            (dense): Linear(in_features=768, out_features=768, bias=True)
            (LayerNorm): LayerNorm((768,), eps=1e-12, elementwise_affine=True)
            (dropout): Dropout(p=0.1, inplace=False)
          )
        )
        (intermediate): BertIntermediate(
          (dense): Linear(in_features=768, out_features=3072, bias=True)
          (intermediate_act_fn): GELUActivation()
        )
        (output): BertOutput(
          (dense): Linear(in_features=3072, out_features=768, bias=True)
          (LayerNorm): LayerNorm((768,), eps=1e-12, elementwise_affine=True)
          (dropout): Dropout(p=0.1, inplace=False)
        )
      )
    )
  )
  (pooler): BertPooler(
    (dense): Linear(in_features=768, out_features=768, bias=True)
    (activation): Tanh()
  )
)
GPTNeoXModel(
  (embed_in): Embedding(50304, 768)
  (layers): ModuleList(
    (0-1): 2 x GPTNeoXLayer(
      (input_layernorm): LayerNorm((768,), eps=1e-05, elementwise_affine=True)
      (post_attention_layernorm): LayerNorm((768,), eps=1e-05, elementwise_affine=True)
      (attention): GPTNeoXAttention(
        (rotary_emb): RotaryEmbedding()
        (query_key_value): Linear(in_features=768, out_features=2304, bias=True)
        (dense): Linear(in_features=768, out_features=768, bias=True)
      )
      (mlp): GPTNeoXMLP(
        (dense_h_to_4h): Linear(in_features=768, out_features=3072, bias=True)
        (dense_4h_to_h): Linear(in_features=3072, out_features=768, bias=True)
        (act): GELUActivation()
      )
    )
  )
  (final_layer_norm): LayerNorm((768,), eps=1e-05, elementwise_affine=True)
)
  0%|          | 0/1503 [00:00<?, ?it/s]huggingface/tokenizers: The current process just got forked, after parallelism has already been used. Disabling parallelism to avoid deadlocks...
To disable this warning, you can either:
	- Avoid using `tokenizers` before the fork if possible
	- Explicitly set the environment variable TOKENIZERS_PARALLELISM=(true | false)
…
