…
04/22/2026 12:30:48 - INFO - __main__ -   ***** Running training *****
04/22/2026 12:30:48 - INFO - __main__ -     Num examples = 24034
04/22/2026 12:30:48 - INFO - __main__ -     Num Epochs = 100
04/22/2026 12:30:48 - INFO - __main__ -     Instantaneous batch size per GPU = 16
04/22/2026 12:30:48 - INFO - __main__ -     Total train batch size (w. parallel, distributed & accumulation) = 16
04/22/2026 12:30:48 - INFO - __main__ -     Gradient Accumulation steps = 1
04/22/2026 12:30:48 - INFO - __main__ -     Total optimization steps = 150300
RobertaModel(
  (embeddings): RobertaEmbeddings(
    (word_embeddings): Embedding(50265, 768, padding_idx=1)
    (position_embeddings): Embedding(514, 768, padding_idx=1)
    (token_type_embeddings): Embedding(1, 768)
    (LayerNorm): LayerNorm((768,), eps=1e-05, elementwise_affine=True)
    (dropout): Dropout(p=0.1, inplace=False)
  )
  (encoder): RobertaEncoder(
    (layer): ModuleList(
      (0-3): 4 x RobertaLayer(
        (attention): RobertaAttention(
          (self): RobertaSelfAttention(
            (query): Linear(in_features=768, out_features=768, bias=True)
            (key): Linear(in_features=768, out_features=768, bias=True)
            (value): Linear(in_features=768, out_features=768, bias=True)
            (dropout): Dropout(p=0.1, inplace=False)
          )
          (output): RobertaSelfOutput(
            (dense): Linear(in_features=768, out_features=768, bias=True)
            (LayerNorm): LayerNorm((768,), eps=1e-05, elementwise_affine=True)
            (dropout): Dropout(p=0.1, inplace=False)
          )
        )
        (intermediate): RobertaIntermediate(
          (dense): Linear(in_features=768, out_features=3072, bias=True)
          (intermediate_act_fn): GELUActivation()
        )
        (output): RobertaOutput(
          (dense): Linear(in_features=3072, out_features=768, bias=True)
          (LayerNorm): LayerNorm((768,), eps=1e-05, elementwise_affine=True)
          (dropout): Dropout(p=0.1, inplace=False)
        )
      )
    )
  )
  (pooler): RobertaPooler(
    (dense): Linear(in_features=768, out_features=768, bias=True)
    (activation): Tanh()
  )
)
CodeGenModel(
  (wte): Embedding(51200, 1024)
  (drop): Dropout(p=0.0, inplace=False)
  (h): ModuleList(
    (0-1): 2 x CodeGenBlock(
      (ln_1): LayerNorm((1024,), eps=1e-05, elementwise_affine=True)
      (attn): CodeGenAttention(
        (attn_dropout): Dropout(p=0.0, inplace=False)
        (resid_dropout): Dropout(p=0.0, inplace=False)
        (qkv_proj): Linear(in_features=1024, out_features=3072, bias=False)
        (out_proj): Linear(in_features=1024, out_features=1024, bias=False)
      )
      (mlp): CodeGenMLP(
        (fc_in): Linear(in_features=1024, out_features=4096, bias=True)
        (fc_out): Linear(in_features=4096, out_features=1024, bias=True)
        (act): NewGELUActivation()
        (dropout): Dropout(p=0.0, inplace=False)
      )
    )
  )
  (ln_f): LayerNorm((1024,), eps=1e-05, elementwise_affine=True)
)
  0%|          | 0/1503 [00:00<?, ?it/s]huggingface/tokenizers: The current process just got forked, after parallelism has already been used. Disabling parallelism to avoid deadlocks...
To disable this warning, you can either:
	- Avoid using `tokenizers` before the fork if possible
	- Explicitly set the environment variable TOKENIZERS_PARALLELISM=(true | false)
…
