…
_output_dir=False, overwrite_cache=False, seed=123456, epoch=100, fp16=False, fp16_opt_level='O1', local_rank=-1, server_ip='', server_port='', early_stopping_patience=10, min_loss_delta=0.001, dropout_probability=0, n_gpu=1, device=device(type='cuda'), per_gpu_train_batch_size=16, per_gpu_eval_batch_size=64, start_epoch=0, start_step=0)
06/19/2026 01:18:52 - INFO - __main__ -   ***** Running evaluation *****
06/19/2026 01:18:52 - INFO - __main__ -     Num examples = 7674
06/19/2026 01:18:52 - INFO - __main__ -     Batch size = 64
BertModel(
  (embeddings): BertEmbeddings(
    (word_embeddings): Embedding(49156, 768, padding_idx=49152)
    (position_embeddings): Embedding(1024, 768)
    (token_type_embeddings): Embedding(2, 768)
    (LayerNorm): LayerNorm((768,), eps=1e-12, elementwise_affine=True)
    (dropout): Dropout(p=0.1, inplace=False)
  )
  (encoder): BertEncoder(
    (layer): ModuleList(
      (0-3): 4 x BertLayer(
        (attention): BertAttention(
          (self): BertSelfAttention(
            (query): Linear(in_features=768, out_features=768, bias=True)
            (key): Linear(in_features=768, out_features=768, bias=True)
            (value): Linear(in_features=768, out_features=768, bias=True)
            (dropout): Dropout(p=0.1, inplace=False)
          )
          (output): BertSelfOutput(
            (dense): Linear(in_features=768, out_features=768, bias=True)
            (LayerNorm): LayerNorm((768,), eps=1e-12, elementwise_affine=True)
            (dropout): Dropout(p=0.1, inplace=False)
          )
        )
        (intermediate): BertIntermediate(
          (dense): Linear(in_features=768, out_features=3072, bias=True)
          (intermediate_act_fn): GELUActivation()
        )
        (output): BertOutput(
          (dense): Linear(in_features=3072, out_features=768, bias=True)
          (LayerNorm): LayerNorm((768,), eps=1e-12, elementwise_affine=True)
          (dropout): Dropout(p=0.1, inplace=False)
        )
      )
    )
  )
  (pooler): BertPooler(
    (dense): Linear(in_features=768, out_features=768, bias=True)
    (activation): Tanh()
  )
)
GPTNeoXModel(
  (embed_in): Embedding(50304, 768)
  (layers): ModuleList(
    (0-1): 2 x GPTNeoXLayer(
      (input_layernorm): LayerNorm((768,), eps=1e-05, elementwise_affine=True)
      (post_attention_layernorm): LayerNorm((768,), eps=1e-05, elementwise_affine=True)
      (attention): GPTNeoXAttention(
        (rotary_emb): RotaryEmbedding()
        (query_key_value): Linear(in_features=768, out_features=2304, bias=True)
        (dense): Linear(in_features=768, out_features=768, bias=True)
      )
      (mlp): GPTNeoXMLP(
        (dense_h_to_4h): Linear(in_features=768, out_features=3072, bias=True)
        (dense_4h_to_h): Linear(in_features=3072, out_features=768, bias=True)
        (act): GELUActivation()
      )
    )
  )
  (final_layer_norm): LayerNorm((768,), eps=1e-05, elementwise_affine=True)
)
CodeGenModel(
  (wte): Embedding(51200, 1024)
  (drop): Dropout(p=0.0, inplace=False)
  (h): ModuleList(
    (0-1): 2 x CodeGenBlock(
      (ln_1): LayerNorm((1024,), eps=1e-05, elementwise_affine=True)
      (attn): CodeGenAttention(
        (attn_dropout): Dropout(p=0.0, inplace=False)
        (resid_dropout): Dropout(p=0.0, inplace=False)
        (qkv_proj): Linear(in_features=1024, out_features=3072, bias=False)
        (out_proj): Linear(in_features=1024, out_features=1024, bias=False)
      )
      (mlp): CodeGenMLP(
        (fc_in): Linear(in_features=1024, out_features=4096, bias=True)
        (fc_out): Linear(in_features=4096, out_features=1024, bias=True)
        (act): NewGELUActivation()
        (dropout): Dropout(p=0.0, inplace=False)
      )
    )
  )
  (ln_f): LayerNorm((1024,), eps=1e-05, elementwise_affine=True)
)
huggingface/tokenizers: The current process just got forked, after parallelism has already been used. Disabling parallelism to avoid deadlocks...
To disable this warning, you can either:
	- Avoid using `tokenizers` before the fork if possible
	- Explicitly set the environment variable TOKENIZERS_PARALLELISM=(true | false)
huggingface/tokenizers: The current process just got forked, after parallelism has already been used. Disabling parallelism to avoid deadlocks...
…
