…
ight_decay=0.0, adam_epsilon=1e-08, max_grad_norm=1.0, num_train_epochs=1.0, max_steps=-1, warmup_steps=0, logging_steps=50, save_steps=50, save_total_limit=None, eval_all_checkpoints=False, no_cuda=False, overwrite_output_dir=False, overwrite_cache=False, seed=123456, epoch=100, fp16=False, fp16_opt_level='O1', local_rank=-1, server_ip='', server_port='', n_gpu=1, device=device(type='cuda'), per_gpu_train_batch_size=16, per_gpu_eval_batch_size=32, start_epoch=0, start_step=0)
04/25/2026 12:52:24 - INFO - __main__ -   Creating features from index file at ../dataset/valid.txt 
GPT2Model(
  (wte): Embedding(52000, 768)
  (wpe): Embedding(1024, 768)
  (drop): Dropout(p=0.1, inplace=False)
  (h): ModuleList(
    (0-3): 4 x GPT2Block(
      (ln_1): LayerNorm((768,), eps=1e-05, elementwise_affine=True)
      (attn): GPT2Attention(
        (c_attn): Conv1D()
        (c_proj): Conv1D()
        (attn_dropout): Dropout(p=0.1, inplace=False)
        (resid_dropout): Dropout(p=0.1, inplace=False)
      )
      (ln_2): LayerNorm((768,), eps=1e-05, elementwise_affine=True)
      (mlp): GPT2MLP(
        (c_fc): Conv1D()
        (c_proj): Conv1D()
        (act): NewGELUActivation()
        (dropout): Dropout(p=0.1, inplace=False)
      )
    )
  )
  (ln_f): LayerNorm((768,), eps=1e-05, elementwise_affine=True)
)
CodeGenModel(
  (wte): Embedding(51200, 1024)
  (drop): Dropout(p=0.0, inplace=False)
  (h): ModuleList(
    (0-1): 2 x CodeGenBlock(
      (ln_1): LayerNorm((1024,), eps=1e-05, elementwise_affine=True)
      (attn): CodeGenAttention(
        (attn_dropout): Dropout(p=0.0, inplace=False)
        (resid_dropout): Dropout(p=0.0, inplace=False)
        (qkv_proj): Linear(in_features=1024, out_features=3072, bias=False)
        (out_proj): Linear(in_features=1024, out_features=1024, bias=False)
      )
      (mlp): CodeGenMLP(
        (fc_in): Linear(in_features=1024, out_features=4096, bias=True)
        (fc_out): Linear(in_features=4096, out_features=1024, bias=True)
        (act): NewGELUActivation()
        (dropout): Dropout(p=0.0, inplace=False)
      )
    )
  )
  (ln_f): LayerNorm((1024,), eps=1e-05, elementwise_affine=True)
)
  0%|          | 0/41541 [00:00<?, ?it/s]  3%|▎         | 1300/41541 [00:00<00:05, 7784.22it/s]  6%|▋         | 2600/41541 [00:00<00:04, 8002.06it/s]  9%|▉         | 3900/41541 [00:00<00:04, 8121.27it/s] 11%|█▏        | 4713/41541 [00:00<00:04, 7949.03it/s] 14%|█▍        | 5850/41541 [00:00<00:04, 7255.25it/s] 17%|█▋        | 7150/41541 [00:00<
…
