…
=0, start_step=0)
04/03/2026 22:48:38 - INFO - __main__ -   Creating features from index file at ../dataset/valid.txt 
<class 'transformers.models.auto.configuration_auto.AutoConfig'> <class 'transformers.models.auto.modeling_auto.AutoModel'> <class 'transformers.models.auto.tokenization_auto.AutoTokenizer'>
<cls> 49154
<sep> 49153
<pad> 49152
<class 'transformers.models.auto.configuration_auto.AutoConfig'> <class 'transformers.models.auto.modeling_auto.AutoModel'> <class 'transformers.models.auto.tokenization_auto.AutoTokenizer'>
BertModel(
  (embeddings): BertEmbeddings(
    (word_embeddings): Embedding(49156, 768, padding_idx=49152)
    (position_embeddings): Embedding(1024, 768)
    (token_type_embeddings): Embedding(2, 768)
    (LayerNorm): LayerNorm((768,), eps=1e-12, elementwise_affine=True)
    (dropout): Dropout(p=0.1, inplace=False)
  )
  (encoder): BertEncoder(
    (layer): ModuleList(
      (0-5): 6 x BertLayer(
        (attention): BertAttention(
          (self): BertSelfAttention(
            (query): Linear(in_features=768, out_features=768, bias=True)
            (key): Linear(in_features=768, out_features=768, bias=True)
            (value): Linear(in_features=768, out_features=768, bias=True)
            (dropout): Dropout(p=0.1, inplace=False)
          )
          (output): BertSelfOutput(
            (dense): Linear(in_features=768, out_features=768, bias=True)
            (LayerNorm): LayerNorm((768,), eps=1e-12, elementwise_affine=True)
            (dropout): Dropout(p=0.1, inplace=False)
          )
        )
        (intermediate): BertIntermediate(
          (dense): Linear(in_features=768, out_features=3072, bias=True)
          (intermediate_act_fn): GELUActivation()
        )
        (output): BertOutput(
          (dense): Linear(in_features=3072, out_features=768, bias=True)
          (LayerNorm): LayerNorm((768,), eps=1e-12, elementwise_affine=True)
          (dropout): Dropout(p=0.1, inplace=False)
        )
      )
    )
  )
  (pooler): BertPooler(
    (dense): Linear(in_features=768, out_features=768, bias=True)
    (activation): Tanh()
  )
)
  0%|          | 0/41541 [00:00<?, ?it/s]  2%|▏         | 650/41541 [00:00<00:09, 4372.64it/s]  3%|▎         | 1300/41541 [00:00<00:07, 5388.11it/s]  6%|▋         | 2600/41541 [00:00<00:07, 5542.48it/s]  8%|▊         | 3250/41541 [00:00<00:07, 5092.01it/s]  9%|▉         | 3900/41541 [00:00<00:07, 5039.06it/s] 11%|█
…
