…
ight_decay=0.0, adam_epsilon=1e-08, max_grad_norm=1.0, num_train_epochs=1.0, max_steps=-1, warmup_steps=0, logging_steps=50, save_steps=50, save_total_limit=None, eval_all_checkpoints=False, no_cuda=False, overwrite_output_dir=False, overwrite_cache=False, seed=123456, epoch=100, fp16=False, fp16_opt_level='O1', local_rank=-1, server_ip='', server_port='', n_gpu=1, device=device(type='cuda'), per_gpu_train_batch_size=16, per_gpu_eval_batch_size=32, start_epoch=0, start_step=0)
04/25/2026 13:23:06 - INFO - __main__ -   Creating features from index file at ../dataset/valid.txt 
GPT2Model(
  (wte): Embedding(52000, 768)
  (wpe): Embedding(1024, 768)
  (drop): Dropout(p=0.1, inplace=False)
  (h): ModuleList(
    (0-3): 4 x GPT2Block(
      (ln_1): LayerNorm((768,), eps=1e-05, elementwise_affine=True)
      (attn): GPT2Attention(
        (c_attn): Conv1D()
        (c_proj): Conv1D()
        (attn_dropout): Dropout(p=0.1, inplace=False)
        (resid_dropout): Dropout(p=0.1, inplace=False)
      )
      (ln_2): LayerNorm((768,), eps=1e-05, elementwise_affine=True)
      (mlp): GPT2MLP(
        (c_fc): Conv1D()
        (c_proj): Conv1D()
        (act): NewGELUActivation()
        (dropout): Dropout(p=0.1, inplace=False)
      )
    )
  )
  (ln_f): LayerNorm((768,), eps=1e-05, elementwise_affine=True)
)
GPTNeoXModel(
  (embed_in): Embedding(50304, 768)
  (layers): ModuleList(
    (0-1): 2 x GPTNeoXLayer(
      (input_layernorm): LayerNorm((768,), eps=1e-05, elementwise_affine=True)
      (post_attention_layernorm): LayerNorm((768,), eps=1e-05, elementwise_affine=True)
      (attention): GPTNeoXAttention(
        (rotary_emb): RotaryEmbedding()
        (query_key_value): Linear(in_features=768, out_features=2304, bias=True)
        (dense): Linear(in_features=768, out_features=768, bias=True)
      )
      (mlp): GPTNeoXMLP(
        (dense_h_to_4h): Linear(in_features=768, out_features=3072, bias=True)
        (dense_4h_to_h): Linear(in_features=3072, out_features=768, bias=True)
        (act): GELUActivation()
      )
    )
  )
  (final_layer_norm): LayerNorm((768,), eps=1e-05, elementwise_affine=True)
)
  0%|          | 0/41541 [00:00<?, ?it/s]  3%|▎         | 1300/41541 [00:00<00:04, 9068.48it/s]  6%|▋         | 2600/41541 [00:00<00:04, 9168.69it/s]  9%|▉         | 3900/41541 [00:00<00:04, 9396.22it/s] 13%|█▎        | 5200/41541 [00:00<00:03, 9520.67it/s] 16%|█▌        | 6500/41541 [00:00<00:03, 9629.78it/s] 19%|█▉        | 7800/41541 [00:00<0
…
